Model: "functional"
┏━━━━━━━━━━━━━━━━━━━━━┳━━━━━━━━━━━━━━━━━━━┳━━━━━━━━━━━━┳━━━━━━━━━━━━━━━━━━━┓
┃ Layer (type)        ┃ Output Shape      ┃    Param # ┃ Connected to      ┃
┡━━━━━━━━━━━━━━━━━━━━━╇━━━━━━━━━━━━━━━━━━━╇━━━━━━━━━━━━╇━━━━━━━━━━━━━━━━━━━┩
│ input_layer         │ (None, 500, 1)    │          0 │ -                 │
│ (InputLayer)        │                   │            │                   │
├─────────────────────┼───────────────────┼────────────┼───────────────────┤
│ multi_head_attenti… │ (None, 500, 1)    │      7,169 │ input_layer[0][0… │
│ (MultiHeadAttentio… │                   │            │ input_layer[0][0] │
├─────────────────────┼───────────────────┼────────────┼───────────────────┤
│ dropout_1 (Dropout) │ (None, 500, 1)    │          0 │ multi_head_atten… │
├─────────────────────┼───────────────────┼────────────┼───────────────────┤
│ layer_normalization │ (None, 500, 1)    │          2 │ dropout_1[0][0]   │
│ (LayerNormalizatio… │                   │            │                   │
├─────────────────────┼───────────────────┼────────────┼───────────────────┤
│ add (Add)           │ (None, 500, 1)    │          0 │ layer_normalizat… │
│                     │                   │            │ input_layer[0][0] │
├─────────────────────┼───────────────────┼────────────┼───────────────────┤
│ conv1d (Conv1D)     │ (None, 500, 4)    │          8 │ add[0][0]         │
├─────────────────────┼───────────────────┼────────────┼───────────────────┤
│ dropout_2 (Dropout) │ (None, 500, 4)    │          0 │ conv1d[0][0]      │
├─────────────────────┼───────────────────┼────────────┼───────────────────┤
│ conv1d_1 (Conv1D)   │ (None, 500, 1)    │          5 │ dropout_2[0][0]   │
├─────────────────────┼───────────────────┼────────────┼───────────────────┤
│ layer_normalizatio… │ (None, 500, 1)    │          2 │ conv1d_1[0][0]    │
│ (LayerNormalizatio… │                   │            │                   │
├─────────────────────┼───────────────────┼────────────┼───────────────────┤
│ add_1 (Add)         │ (None, 500, 1)    │          0 │ layer_normalizat… │
│                     │                   │            │ add[0][0]         │
├─────────────────────┼───────────────────┼────────────┼───────────────────┤
│ multi_head_attenti… │ (None, 500, 1)    │      7,169 │ add_1[0][0],      │
│ (MultiHeadAttentio… │                   │            │ add_1[0][0]       │
├─────────────────────┼───────────────────┼────────────┼───────────────────┤
│ dropout_4 (Dropout) │ (None, 500, 1)    │          0 │ multi_head_atten… │
├─────────────────────┼───────────────────┼────────────┼───────────────────┤
│ layer_normalizatio… │ (None, 500, 1)    │          2 │ dropout_4[0][0]   │
│ (LayerNormalizatio… │                   │            │                   │
├─────────────────────┼───────────────────┼────────────┼───────────────────┤
│ add_2 (Add)         │ (None, 500, 1)    │          0 │ layer_normalizat… │
│                     │                   │            │ add_1[0][0]       │
├─────────────────────┼───────────────────┼────────────┼───────────────────┤
│ conv1d_2 (Conv1D)   │ (None, 500, 4)    │          8 │ add_2[0][0]       │
├─────────────────────┼───────────────────┼────────────┼───────────────────┤
│ dropout_5 (Dropout) │ (None, 500, 4)    │          0 │ conv1d_2[0][0]    │
├─────────────────────┼───────────────────┼────────────┼───────────────────┤
│ conv1d_3 (Conv1D)   │ (None, 500, 1)    │          5 │ dropout_5[0][0]   │
├─────────────────────┼───────────────────┼────────────┼───────────────────┤
│ layer_normalizatio… │ (None, 500, 1)    │          2 │ conv1d_3[0][0]    │
│ (LayerNormalizatio… │                   │            │                   │
├─────────────────────┼───────────────────┼────────────┼───────────────────┤
│ add_3 (Add)         │ (None, 500, 1)    │          0 │ layer_normalizat… │
│                     │                   │            │ add_2[0][0]       │
├─────────────────────┼───────────────────┼────────────┼───────────────────┤
│ multi_head_attenti… │ (None, 500, 1)    │      7,169 │ add_3[0][0],      │
│ (MultiHeadAttentio… │                   │            │ add_3[0][0]       │
├─────────────────────┼───────────────────┼────────────┼───────────────────┤
│ dropout_7 (Dropout) │ (None, 500, 1)    │          0 │ multi_head_atten… │
├─────────────────────┼───────────────────┼────────────┼───────────────────┤
│ layer_normalizatio… │ (None, 500, 1)    │          2 │ dropout_7[0][0]   │
│ (LayerNormalizatio… │                   │            │                   │
├─────────────────────┼───────────────────┼────────────┼───────────────────┤
│ add_4 (Add)         │ (None, 500, 1)    │          0 │ layer_normalizat… │
│                     │                   │            │ add_3[0][0]       │
├─────────────────────┼───────────────────┼────────────┼───────────────────┤
│ conv1d_4 (Conv1D)   │ (None, 500, 4)    │          8 │ add_4[0][0]       │
├─────────────────────┼───────────────────┼────────────┼───────────────────┤
│ dropout_8 (Dropout) │ (None, 500, 4)    │          0 │ conv1d_4[0][0]    │
├─────────────────────┼───────────────────┼────────────┼───────────────────┤
│ conv1d_5 (Conv1D)   │ (None, 500, 1)    │          5 │ dropout_8[0][0]   │
├─────────────────────┼───────────────────┼────────────┼───────────────────┤
│ layer_normalizatio… │ (None, 500, 1)    │          2 │ conv1d_5[0][0]    │
│ (LayerNormalizatio… │                   │            │                   │
├─────────────────────┼───────────────────┼────────────┼───────────────────┤
│ add_5 (Add)         │ (None, 500, 1)    │          0 │ layer_normalizat… │
│                     │                   │            │ add_4[0][0]       │
├─────────────────────┼───────────────────┼────────────┼───────────────────┤
│ multi_head_attenti… │ (None, 500, 1)    │      7,169 │ add_5[0][0],      │
│ (MultiHeadAttentio… │                   │            │ add_5[0][0]       │
├─────────────────────┼───────────────────┼────────────┼───────────────────┤
│ dropout_10          │ (None, 500, 1)    │          0 │ multi_head_atten… │
│ (Dropout)           │                   │            │                   │
├─────────────────────┼───────────────────┼────────────┼───────────────────┤
│ layer_normalizatio… │ (None, 500, 1)    │          2 │ dropout_10[0][0]  │
│ (LayerNormalizatio… │                   │            │                   │
├─────────────────────┼───────────────────┼────────────┼───────────────────┤
│ add_6 (Add)         │ (None, 500, 1)    │          0 │ layer_normalizat… │
│                     │                   │            │ add_5[0][0]       │
├─────────────────────┼───────────────────┼────────────┼───────────────────┤
│ conv1d_6 (Conv1D)   │ (None, 500, 4)    │          8 │ add_6[0][0]       │
├─────────────────────┼───────────────────┼────────────┼───────────────────┤
│ dropout_11          │ (None, 500, 4)    │          0 │ conv1d_6[0][0]    │
│ (Dropout)           │                   │            │                   │
├─────────────────────┼───────────────────┼────────────┼───────────────────┤
│ conv1d_7 (Conv1D)   │ (None, 500, 1)    │          5 │ dropout_11[0][0]  │
├─────────────────────┼───────────────────┼────────────┼───────────────────┤
│ layer_normalizatio… │ (None, 500, 1)    │          2 │ conv1d_7[0][0]    │
│ (LayerNormalizatio… │                   │            │                   │
├─────────────────────┼───────────────────┼────────────┼───────────────────┤
│ add_7 (Add)         │ (None, 500, 1)    │          0 │ layer_normalizat… │
│                     │                   │            │ add_6[0][0]       │
├─────────────────────┼───────────────────┼────────────┼───────────────────┤
│ global_average_poo… │ (None, 1)         │          0 │ add_7[0][0]       │
│ (GlobalAveragePool… │                   │            │                   │
├─────────────────────┼───────────────────┼────────────┼───────────────────┤
│ dense (Dense)       │ (None, 128)       │        256 │ global_average_p… │
├─────────────────────┼───────────────────┼────────────┼───────────────────┤
│ dropout_12          │ (None, 128)       │          0 │ dense[0][0]       │
│ (Dropout)           │                   │            │                   │
├─────────────────────┼───────────────────┼────────────┼───────────────────┤
│ dense_1 (Dense)     │ (None, 2)         │        258 │ dropout_12[0][0]  │
└─────────────────────┴───────────────────┴────────────┴───────────────────┘
 Total params: 29,258 (114.29 KB)
 Trainable params: 29,258 (114.29 KB)
 Non-trainable params: 0 (0.00 B)
Epoch 1/150
45/45 ━━━━━━━━━━━━━━━━━━━━ 43s 371ms/step - loss: 0.6931 - sparse_categorical_accuracy: 0.5111 - val_loss: 0.6930 - val_sparse_categorical_accuracy: 0.5132
Epoch 2/150
45/45 ━━━━━━━━━━━━━━━━━━━━ 13s 297ms/step - loss: 0.6930 - sparse_categorical_accuracy: 0.5125 - val_loss: 0.6929 - val_sparse_categorical_accuracy: 0.5132
…
